models/dp_nn_model.pt (torch, 5360 bytes, 4 tensors)

_module.fc1.weight f4 [32, 22]
000000 61 61 04 3e 06 18 21 be eb e1 88 bd aa 42 90 3d
       0.12927772 -0.1573182 -0.066837154 0.07043965
000010 b2 26 db bb d7 bd c2 bd 13 98 14 3e de 26 50 be
       -0.0066879625 -0.09508865 0.14511137 -0.20327327
000020 0c 01 5e 3c 59 54 0d 3c 63 57 9e 3d 30 ce 72 3d
       0.013550054 0.008626067 0.077315114 0.059278667
000030 f6 8e 59 3d 8d 34 dd 3d 4c f4 4d be 92 8b 42 bd
       0.053114854 0.10801039 -0.20112723 -0.047496386
000040 a4 4c 2b 3e d3 63 2b bd 66 77 87 3d b8 f9 04 be
       0.16728455 -0.041843247 0.0661457 -0.12985885
000050 f5 82 2f 3e 5b a1 28 be 71 5c e5 bd 82 ff 91 bd
       0.171398 -0.16467802 -0.111992724 -0.071288124
000060 ff 6e 51 3e cc 90 20 3e de ad 20 3e e6 50 b4 3d
       0.20452498 0.15680236 0.15691325 0.08804493
000070 13 64 4b 3e 66 50 b0 3c 8c ca 2a 3e 31 07 8e ba
       0.19862394 0.021522712 0.16678828 -0.0010835883
000080 97 71 0b 3e 5a f5 e9 bd e4 dd e0 3c 03 d0 f7 3d
       0.1361755 -0.1142375 0.027449556 0.12100222
000090 e4 cc 57 bb 40 a3 32 3e 5b 53 a6 3d 3c e2 df 3d
       -0.003292852 0.17445087 0.081213675 0.10931823
0000a0 be a6 51 be 75 96 b4 bd b4 f7 3e be 90 1d d3 bd
       -0.20473763 -0.0881776 -0.18649179 -0.10308373
0000b0 ab 09 39 3e 7c 27 c3 3e 65 52 1f 3e e7 76 73 3e
       0.18070094 0.38116062 0.15558775 0.23775826
0000c0 07 48 b1 3e f6 c1 4b 3d f1 0c ea 3d 06 aa 25 be
       0.34625265 0.049745522 0.114282496 -0.1617814
0000d0 37 89 d0 bd 5b fa 41 3d ec c2 ae 3c 8c 26 fa bd
       -0.10182422 0.0473579 0.02133318 -0.122143835
0000e0 c7 7d ec bd 3e 6c 93 bd cd 05 6e 3e 7a f5 23 3d
       -0.115474276 -0.0719838 0.232444 0.040029027
0000f0 6a 5f 05 3d d0 b6 96 3d 5c e8 c8 bd 1d 72 9c 3e
       0.032561697 0.073590875 -0.09809944 0.30555812
000100 71 7d 0c bd c8 41 aa bc 62 1e 3b bd a1 75 6d 3e
       -0.034299318 -0.02078332 -0.045683272 0.23189403
000110 86 6d 8c 3d d0 6e fc 3d b3 7f 93 3e 77 fe 16 be
       0.068568274 0.12325823 0.28808364 -0.14745508
000120 41 bc bf bc b0 02 5b 3e 27 ff 22 3e 80 21 8c bd
       -0.023405196 0.21387744 0.15917645 -0.06842327
000130 98 de 47 3e 2e 08 12 3e 91 53 1b 3e cc 02 f3 3d
       0.19518507 0.14260933 0.15168597 0.11865768
000140 01 dd 5a 3e ee 28 03 be 82 70 58 be e4 d3 09 3e
       0.21373369 -0.12808582 -0.21136668 0.13459736
000150 c1 99 87 3c e2 d1 91 bd ff 3a 0a be 7e 8f 19 3e
       0.016552808 -0.0712011 -0.13499068 0.14996144
000160 b9 4a 0c be 90 85 b2 be 3a 13 9e be 7d 3d 7c be
       -0.1370038 -0.34867525 -0.30874044 -0.24632831
000170 90 1e cd bd b5 b9 aa bd d6 57 28 be d6 d7 0e bd
       -0.10015595 -0.08336202 -0.16439757 -0.034873806
000180 ba 3a 04 3e 19 c5 e6 3d 42 3e 59 3c 21 0a b0 bd
       0.12913027 0.11268062 0.013259472 -0.08595682
000190 a4 43 46 3e 06 b0 4c be 5d e9 b7 be 64 73 57 bd
       0.1936174 -0.19989023 -0.3592023 -0.05260028
0001a0 52 98 57 bd c2 a7 da 3c f2 e5 a2 3c bd f7 91 bd
       -0.0526355 0.026691321 0.019885037 -0.071273305
0001b0 4a f4 35 3e 79 7e 47 3e 08 30 0a be d9 55 26 bd
       0.1776897 0.19481839 -0.13494885 -0.040609214
0001c0 96 7d bc bd 62 15 d3 bd d4 89 38 be 7c fd ea 3d
       -0.09203641 -0.10306813 -0.18021327 0.114741296
0001d0 8e e4 85 bd a3 cc ce 3d cb ce 88 3c a5 1d a0 bd
       -0.06537734 0.10097625 0.01670017 -0.07818154
0001e0 0e 8e 0d be a6 4b 3d 3e f5 f3 88 bc 6a 82 5c 3e
       -0.13823721 0.18485889 -0.01671789 0.21534124
0001f0 b5 21 22 be 9f 5c 81 bd e9 16 29 3e 71 02 35 be
       -0.1583317 -0.06316494 0.16512646 -0.17676713
000200 48 a5 60 be b2 9d cf 3d 93 a9 35 be bc 63 14 bc
       -0.2193805 0.101375 -0.17740469 -0.009056982
000210 56 4a b1 bd 80 03 cb bd b8 d6 80 be 45 19 98 3d
       -0.086567566 -0.09912777 -0.25163817 0.07426695
000220 14 98 80 be ef 56 87 bd 53 6c be bd 6a 19 23 be
       -0.25116026 -0.06608378 -0.09298005 -0.15927663
000230 5f 19 98 bd 5b b8 de bd 68 d8 31 bd 76 98 79 3d
       -0.07426714 -0.10875007 -0.04341927 0.060936414
000240 35 dc 52 bd 37 64 72 3d 87 9d 6c be 57 ba fd 3c
       -0.051479537 0.059177604 -0.23106967 0.030972643
000250 95 c5 bf 3d cb 06 a1 bd b4 68 50 be a9 24 a5 be
       0.09363858 -0.07862624 -0.20352441 -0.32254532
000260 e6 e1 29 3c d0 6f 2b 3e 24 02 f8 bc d4 81 49 3e
       0.0103688 0.16741872 -0.030274458 0.19678432
000270 ae 3d 0f bc eb ef 19 3e 14 cd 53 be a8 c1 ed 3d
       -0.008742733 0.15032928 -0.206837 0.116092026
000280 4e 04 fe 3d 20 40 2f bd 49 2d 47 bd 48 e6 70 3d
       0.12403165 -0.042785764 -0.04862717 0.058813363
000290 fd 2f 7f 3c e0 94 8a bd 14 b1 88 3d a5 9e 4f 3e
       0.015575406 -0.06766677 0.066744 0.20275362
0002a0 36 11 b2 bd 81 6a 88 bd 6c ae 38 be 47 8b 0d be
       -0.08694689 -0.06660939 -0.18035287 -0.13822661
0002b0 22 a9 e7 3d 2e e2 01 3e 43 b1 bc bb b5 38 43 bb
       0.113115564 0.12683937 -0.005758436 -0.0029788439
0002c0 9f 74 c4 3d a1 4a 8b bd d0 fc 14 be ad b1 d7 bd
       0.09592556 -0.06801344 -0.14549565 -0.10531936
0002d0 f0 63 94 bc 45 b7 74 3d 44 31 ad bd e6 6f 7f 3d
       -0.01811406 0.059745092 -0.08456662 0.062362574
0002e0 ab b8 9a 3d 99 3a f7 3b d2 fa f5 bc ea a8 18 3e
       0.07554754 0.007544827 -0.030026827 0.14908186
0002f0 28 35 70 3c 55 aa de bd d5 a6 88 3d 6d e4 14 3e
       0.014661111 -0.10872332 0.06672446 0.14540263
000300 8a e4 33 bd e5 c5 57 bd 35 47 87 3d c7 6a a3 bd
       -0.043919124 -0.05267896 0.066053785 -0.079793505
000310 d8 f7 02 bd 2c 16 db 3d 33 24 3a 3e 9f 1c 9f bd
       -0.031974643 0.10697588 0.18177871 -0.07769131
000320 84 13 16 3d 1a ae 35 3d 16 f5 77 be 54 45 b7 bc
       0.036639705 0.04435549 -0.24214587 -0.022371925
000330 eb e5 ae bc 6a 8a d8 bc 98 33 de bd 15 0a 0b be
       -0.021349868 -0.026433188 -0.108496845 -0.13578065
000340 a7 b4 92 bd 51 58 22 3e da 0a f7 bd 74 44 02 be
       -0.07163363 0.15854003 -0.12062617 -0.12721425
000350 0f d4 75 be bc f4 39 be d0 7b 44 3d 55 d7 5f be
       -0.24006675 -0.18159765 0.04796964 -0.21859486
000360 e9 1f 54 bd c3 fd f7 bd 9c 1a 8b bd 92 36 47 3e
       -0.051788244 -0.12108948 -0.06792185 0.1945441
000370 5b 8a 1a 3e bb de d8 bd ed e6 85 bd 4e 52 01 3e
       0.15091841 -0.105893575 -0.06538186 0.12629053
000380 f8 14 be 3d 75 c8 00 3d 30 73 08 3e 08 60 80 bc
       0.09281343 0.03144117 0.1332519 -0.015670791
000390 c4 e7 0e bc 89 7c e7 3d 64 1b 1b 3e 68 2e 27 3e
       -0.008722249 0.1130305 0.15147167 0.16326296
0003a0 5c 58 09 be fa d5 21 bd 6e ca cb bd 8f 61 20 3e
       -0.13412613 -0.039510705 -0.0995072 0.15662216
0003b0 e8 42 0e 3e 6b db 14 be eb 5d 47 3e 86 c3 d3 3d
       0.1389271 -0.14536826 0.1946942 0.103400275
0003c0 d2 d6 24 be e4 15 40 3e df e2 2c 3e 40 ba 27 be
       -0.16097572 0.1875835 0.1688342 -0.16379642
0003d0 b3 42 2a be 78 32 97 bc a6 c0 1c 3e 80 49 cb bc
       -0.16627006 -0.018456683 0.15307865 -0.024815321
0003e0 35 33 ad 3d 96 d0 e2 3d ce 60 3c 3e 9c 70 4e 3e
       0.084570326 0.11074941 0.18396303 0.20160145
0003f0 ca 3d b6 3b c9 38 48 3e db 8f 96 bd 6f 1d 62 bd
       0.005561565 0.19552912 -0.07351657 -0.05520385

_module.fc1.bias f4 [32]
000000 c0 cb 8a bd dd 3f 17 be 3e df d5 3d de b4 97 3e
       -0.067771435 -0.14770456 0.10442971 0.29630178
000010 16 91 53 3e cc e5 2f 3e d5 0d 90 3e ab d6 9f bd
       0.20660815 0.17177504 0.28135553 -0.078046165
000020 bb bb c7 3d 7c 73 1a be c2 88 d2 bd 87 50 80 bd
       0.097526036 -0.15083116 -0.10279991 -0.06265359
000030 3e bf 57 be 79 87 20 be e1 f8 38 3e 70 09 c0 3d
       -0.21069047 -0.15676679 0.1806369 0.093768
000040 c2 d1 55 be fe c8 bf 3d 33 60 35 be f3 53 71 3e
       -0.20880798 0.09364508 -0.17712478 0.2356718
000050 98 b5 0d bd ad 65 d1 3d 04 c9 92 3d 80 d0 35 3e
       -0.03459701 0.10224471 0.07167247 0.17755318
000060 c3 bc 18 be ea 8e 91 3e 6e 9e ae 3e 79 f0 11 be
       -0.14915757 0.28429347 0.34105247 -0.1425189
000070 d6 2f 71 3d f7 0e 06 3d 55 f5 db bd 87 4a 51 3e
       0.05888351 0.032729115 -0.10740153 0.20438586

_module.fc2.weight f4 [2, 32]
000000 27 16 05 3e 78 d7 61 3d 87 76 c5 be 03 84 a4 be
       0.12996732 0.055137128 -0.38566992 -0.32131967
000010 a1 4f 80 3e af 65 54 3d f6 ad b0 3e 5e 22 0e 3d
       0.25060752 0.051854786 0.34507722 0.034700744
000020 11 ac e9 3d 33 a4 76 3d d0 3f ca 3d 2a df 0b be
       0.11409772 0.060215186 0.098754525 -0.13659349
000030 2d 64 1e bb c6 45 5c bd 44 3b 4f be d9 7b 5c be
       -0.0024168596 -0.05377748 -0.20237452 -0.21531619
000040 26 21 64 3d 37 7e 61 3e e7 21 29 3e eb a1 b9 be
       0.055695675 0.22020803 0.16516839 -0.36256346
000050 e3 9f 15 3e a7 c4 81 be 1c ac d3 bc c0 7c 00 3f
       0.14611773 -0.25345346 -0.025838904 0.50190353
000060 77 19 dc bd 7f 18 03 3f 79 da c8 be d1 1f 73 3d
       -0.107470445 0.51209253 -0.3922918 0.059356514
000070 cd e6 bf bd e1 18 a1 be b5 31 29 3e 6a c0 09 3d
       -0.09370194 -0.31464294 0.16522868 0.033630766
000080 31 78 34 bc 98 11 83 3e e0 3a ed 3e 39 4d 55 3e
       -0.011014984 0.2559936 0.4633398 0.2083024
000090 36 ef f6 be d7 cd 0e be ce b3 c1 be 9c 77 94 3d
       -0.48229378 -0.13945709 -0.37832493 0.07249376
0000a0 dc 3c 81 3c 95 0e 89 be 58 f5 1e bd ac 81 b2 bd
       0.01577609 -0.26768938 -0.038808197 -0.08716139
0000b0 9e 9c 06 3d b4 49 85 3d 35 e3 8a 3e 6d 1e 4f bd
       0.032864206 0.065081984 0.2712647 -0.050566126
0000c0 96 f1 b7 bc 9d 37 77 be 52 48 da 3d d8 46 57 3e
       -0.022454064 -0.24142309 0.10658325 0.21023118
0000d0 b3 00 35 3e 31 ad fe bb 58 23 38 3e ba 34 96 be
       0.17676048 -0.007772111 0.17982233 -0.29337102
0000e0 b6 55 d3 bd e4 7d b7 be 61 6f 8f 3e 3a 8d a8 bd
       -0.103190824 -0.35838234 0.28014663 -0.08230062
0000f0 23 bb e9 bd 0a f1 20 3e e9 43 26 be 5a 8b d1 3d
       -0.114126466 0.15716949 -0.16236843 0.10231657

_module.fc2.bias f4 [2]
000000 c3 69 2b be dd 8a 99 3e
       -0.16739564 0.29988757
